…
3. We use the clipping point of CLAHE. Clip limit, also
called contrast-enhanced limit, is used to normalize an
image and prevent over-concentration in similar areas of
the image. We can use a clip limit value between zero
and one. The higher the value, the more contrast. The clip
limit default value is 0.01. The clip limit determines how
many pixels are allowed in a histogram bin. The default
number of histogram bins is 256. It is a positive integer
and is used to develop a contrast-enhancing transforma-
tion.
Layer Filters Kernel Activation Output Shape No. Param.
Input Conv2D 8 (3,3) ReLU (None,224,224,8) 80
Max-pooling2D layer (2,2) (None,112,112,8) 0
Conv2D 16 (3,3) ReLU (None,110,110,16) 1168
(Max-pooling2D layer (2,2) (None,55,55,16) 0
Conv2D 32 (3,3) ReLU (None,53,53,32) 4640
Max-pooling2D (2,2) (None,26,26,32) 0
Conv2D 64 (3,3) ReLU (None,24,24,64) 18694
Max-pooling2D (2,2) (None,12,12,64) 0
Flatten (None,9216) 0
Dense (None,24) 221208
Dense SoftMax (None,3) 75
Total parameters 245667
Trainable parameters 245667
Non-trainable parameters 0
Table 2: The proposed CNN-based model for early prediction and detection of lung cancer stages summary.
4. We apply the histogram equalization to each region.
5. To reduce the noise in the image. Median ﬁlters are used
to remove the noise and preserve the image edges. This is
essential because the noise could lead to a false positive.
…
